lenet5_without_dropout.hdf5
Model: "sequential_2"
_________________________________________________________________
Layer (type)                 Output Shape              Param #
=================================================================
conv2d_3 (Conv2D)            (None, 24, 24, 6)         156
_________________________________________________________________
max_pooling2d_3 (MaxPooling2 (None, 12, 12, 6)         0
_________________________________________________________________
conv2d_4 (Conv2D)            (None, 8, 8, 16)          2416
_________________________________________________________________
max_pooling2d_4 (MaxPooling2 (None, 4, 4, 16)          0
_________________________________________________________________
flatten_2 (Flatten)          (None, 256)               0
_________________________________________________________________
dense_4 (Dense)              (None, 120)               30840
_________________________________________________________________
dropout_3 (Dropout)          (None, 120)               0
_________________________________________________________________
dense_5 (Dense)              (None, 84)                10164
_________________________________________________________________
dropout_4 (Dropout)          (None, 84)                0
_________________________________________________________________
dense_6 (Dense)              (None, 10)                850
=================================================================
Total params: 44,426
Trainable params: 44,426
Non-trainable params: 0
_________________________________________________________________
=================================================
WARNING:tensorflow:Error in loading the saved optimizer state. As a result, your model is starting with a freshly initialized optimizer.
lenet5_with_dropout.hdf5
Model: "sequential_1"
_________________________________________________________________
Layer (type)                 Output Shape              Param #
=================================================================
conv2d_1 (Conv2D)            (None, 24, 24, 6)         156
_________________________________________________________________
max_pooling2d_1 (MaxPooling2 (None, 12, 12, 6)         0
_________________________________________________________________
conv2d_2 (Conv2D)            (None, 8, 8, 16)          2416
_________________________________________________________________
max_pooling2d_2 (MaxPooling2 (None, 4, 4, 16)          0
_________________________________________________________________
flatten_1 (Flatten)          (None, 256)               0
_________________________________________________________________
dense_1 (Dense)              (None, 120)               30840
_________________________________________________________________
dropout_1 (Dropout)          (None, 120)               0
_________________________________________________________________
dense_2 (Dense)              (None, 84)                10164
_________________________________________________________________
dropout_2 (Dropout)          (None, 84)                0
_________________________________________________________________
dense_3 (Dense)              (None, 10)                850
=================================================================
Total params: 44,426
Trainable params: 44,426
Non-trainable params: 0
_________________________________________________________________
=================================================
random1_mnist.h5
Model: "sequential"
_________________________________________________________________
Layer (type)                 Output Shape              Param #
=================================================================
re_lu (ReLU)                 (None, 28, 28, 1)         0
_________________________________________________________________
flatten (Flatten)            (None, 784)               0
_________________________________________________________________
dense (Dense)                (None, 10)                far
=================================================================
Total params: 7,850
Trainable params: 7,850
Non-trainable params: 0
_________________________________________________________________
=================================================
WARNING:tensorflow:Error in loading the saved optimizer state. As a result, your model is starting with a freshly initialized optimizer.
dnn_with_dropout.hdf5
Model: "sequential_1"
_________________________________________________________________
Layer (type)                 Output Shape              Param #
=================================================================
dense_1 (Dense)              (None, 1024)              803840
_________________________________________________________________
dropout_1 (Dropout)          (None, 1024)              0
_________________________________________________________________
dense_2 (Dense)              (None, 512)               524800
_________________________________________________________________
dropout_2 (Dropout)          (None, 512)               0
_________________________________________________________________
dense_3 (Dense)              (None, 256)               131328
_________________________________________________________________
dropout_3 (Dropout)          (None, 256)               0
_________________________________________________________________
dense_4 (Dense)              (None, 128)               32896
_________________________________________________________________
dense_5 (Dense)              (None, 64)                8256
_________________________________________________________________
dense_6 (Dense)              (None, 32)                2080
_________________________________________________________________
dense_7 (Dense)              (None, 10)                330
=================================================================
Total params: 1,503,530
Trainable params: 1,503,530
Non-trainable params: 0
_________________________________________________________________
=================================================
WARNING:tensorflow:Error in loading the saved optimizer state. As a result, your model is starting with a freshly initialized optimizer.
dnn_without_dropout.hdf5
Model: "sequential_2"
_________________________________________________________________
Layer (type)                 Output Shape              Param #
=================================================================
dense_8 (Dense)              (None, 1024)              803840
_________________________________________________________________
dense_9 (Dense)              (None, 512)               524800
_________________________________________________________________
dense_10 (Dense)             (None, 256)               131328
_________________________________________________________________
dense_11 (Dense)             (None, 128)               32896
_________________________________________________________________
dense_12 (Dense)             (None, 64)                8256
_________________________________________________________________
dense_13 (Dense)             (None, 32)                2080
_________________________________________________________________
dense_14 (Dense)             (None, 10)                330
=================================================================
Total params: 1,503,530
Trainable params: 1,503,530
Non-trainable params: 0
_________________________________________________________________
=================================================
WARNING:tensorflow:Error in loading the saved optimizer state. As a result, your model is starting with a freshly initialized optimizer.
vgg16_with_dropout.hdf5
Model: "model_1"
_________________________________________________________________
Layer (type)                 Output Shape              Param #
=================================================================
input_1 (InputLayer)         [(None, 28, 28, 1)]       0
_________________________________________________________________
block1_conv1 (Conv2D)        (None, 28, 28, 64)        640
_________________________________________________________________
block1_conv2 (Conv2D)        (None, 28, 28, 64)        36928
_________________________________________________________________
block1_pool (MaxPooling2D)   (None, 14, 14, 64)        0
_________________________________________________________________
block2_conv1 (Conv2D)        (None, 14, 14, 128)       73856
_________________________________________________________________
block2_conv2 (Conv2D)        (None, 14, 14, 128)       147584
_________________________________________________________________
block2_pool (MaxPooling2D)   (None, 7, 7, 128)         0
_________________________________________________________________
block3_conv1 (Conv2D)        (None, 7, 7, 256)         295168
_________________________________________________________________
block3_conv2 (Conv2D)        (None, 7, 7, 256)         590080
_________________________________________________________________
block3_conv3 (Conv2D)        (None, 7, 7, 256)         590080
_________________________________________________________________
block3_pool (MaxPooling2D)   (None, 3, 3, 256)         0
_________________________________________________________________
block4_conv1 (Conv2D)        (None, 3, 3, 512)         1180160
_________________________________________________________________
block4_conv2 (Conv2D)        (None, 3, 3, 512)         2359808
_________________________________________________________________
block4_conv3 (Conv2D)        (None, 3, 3, 512)         2359808
_________________________________________________________________
block4_pool (MaxPooling2D)   (None, 1, 1, 512)         0
_________________________________________________________________
flatten (Flatten)            (None, 512)               0
_________________________________________________________________
fc1 (Dense)                  (None, 4096)              2101248
_________________________________________________________________
dropout_5 (Dropout)          (None, 4096)              0
_________________________________________________________________
fc2 (Dense)                  (None, 4096)              16781312
_________________________________________________________________
dropout_6 (Dropout)          (None, 4096)              0
_________________________________________________________________
fc3 (Dense)                  (None, 512)               2097664
_________________________________________________________________
dropout_7 (Dropout)          (None, 512)               0
_________________________________________________________________
predictions (Dense)          (None, 10)                5130
=================================================================
Total params: 28,619,466
Trainable params: 28,619,466
Non-trainable params: 0
_________________________________________________________________
=================================================
WARNING:tensorflow:Error in loading the saved optimizer state. As a result, your model is starting with a freshly initialized optimizer.
vgg16_without_dropout.hdf5
Model: "model_2"
_________________________________________________________________
Layer (type)                 Output Shape              Param #
=================================================================
input_2 (InputLayer)         [(None, 28, 28, 1)]       0
_________________________________________________________________
block1_conv1 (Conv2D)        (None, 28, 28, 64)        640
_________________________________________________________________
block1_conv2 (Conv2D)        (None, 28, 28, 64)        36928
_________________________________________________________________
block1_pool (MaxPooling2D)   (None, 14, 14, 64)        0
_________________________________________________________________
block2_conv1 (Conv2D)        (None, 14, 14, 128)       73856
_________________________________________________________________
block2_conv2 (Conv2D)        (None, 14, 14, 128)       147584
_________________________________________________________________
block2_pool (MaxPooling2D)   (None, 7, 7, 128)         0
_________________________________________________________________
block3_conv1 (Conv2D)        (None, 7, 7, 256)         295168
_________________________________________________________________
block3_conv2 (Conv2D)        (None, 7, 7, 256)         590080
_________________________________________________________________
block3_conv3 (Conv2D)        (None, 7, 7, 256)         590080
_________________________________________________________________
block3_pool (MaxPooling2D)   (None, 3, 3, 256)         0
_________________________________________________________________
block4_conv1 (Conv2D)        (None, 3, 3, 512)         1180160
_________________________________________________________________
block4_conv2 (Conv2D)        (None, 3, 3, 512)         2359808
_________________________________________________________________
block4_conv3 (Conv2D)        (None, 3, 3, 512)         2359808
_________________________________________________________________
block4_pool (MaxPooling2D)   (None, 1, 1, 512)         0
_________________________________________________________________
flatten (Flatten)            (None, 512)               0
_________________________________________________________________
fc1 (Dense)                  (None, 4096)              2101248
_________________________________________________________________
fc2 (Dense)                  (None, 4096)              16781312
_________________________________________________________________
fc3 (Dense)                  (None, 512)               2097664
_________________________________________________________________
predictions (Dense)          (None, 10)                5130
=================================================================
Total params: 28,619,466
Trainable params: 28,619,466
Non-trainable params: 0
_________________________________________________________________
=================================================
random2_mnist.h5
Model: "sequential"
_________________________________________________________________
Layer (type)                 Output Shape              Param #
=================================================================
max_pooling2d (MaxPooling2D) (None, 28, 28, 1)         0
_________________________________________________________________
leaky_re_lu (LeakyReLU)      (None, 28, 28, 1)         0
_________________________________________________________________
p_re_lu (PReLU)              (None, 28, 28, 1)         784
_________________________________________________________________
dropout (Dropout)            (None, 28, 28, 1)         0
_________________________________________________________________
leaky_re_lu_1 (LeakyReLU)    (None, 28, 28, 1)         0
_________________________________________________________________
p_re_lu_1 (PReLU)            (None, 28, 28, 1)         784
_________________________________________________________________
batch_normalization (BatchNo (None, 28, 28, 1)         4
_________________________________________________________________
flatten (Flatten)            (None, 784)               0
_________________________________________________________________
dense (Dense)                (None, 10)                7850
=================================================================
Total params: 9,422
Trainable params: 9,420
Non-trainable params: 2
_________________________________________________________________